src_py/mlp_mnist.pth (torch, 204836 bytes, 2 tensors)

fc1.weight f4 [64, 784]
0	0xbd33e6cf	-0.043921288
1	0x3b955119	0.0045567867
2	0xbb915418	-0.0044350736
3	0xbbefa799	-0.0073136804
4	0xbd252f97	-0.04032859
5	0xbd115f3e	-0.03549122
6	0x3c0ffd64	0.00878844
7	0x3b87c09d	0.0041428343
8	0xbd3e4e2f	-0.04646128
9	0xb9c5575e	-0.00037639862
10	0x3c6bfa26	0.014402902
11	0x3b5a4abe	0.003330871
12	0xb87d642c	-6.0413193e-05
13	0x3bc2238c	0.0059246477
14	0xbcfe08d8	-0.031010076
15	0x3c1d2544	0.009591404
16	0x3a96923a	0.0011487671
17	0xbbc2168a	-0.005923097
18	0xbd101078	-0.035171956
19	0x3c0b8778	0.008516185
20	0xbcc530a0	-0.024071038
21	0xbd25138d	-0.04030185
22	0xbca08b1f	-0.019597588
23	0xbd3471c5	-0.04405381
24	0x3bdf7f2e	0.006820581
25	0xbc965906	-0.018352997
26	0xbd3f70c1	-0.04673839
27	0xbce5f35c	-0.028070144
28	0xbca8e231	-0.020615669
29	0xbd4ac3b9	-0.049503062
30	0xbcdb52b8	-0.026772842
31	0xbc2713ec	-0.010197621
32	0xbd3fb467	-0.046802904
33	0xbccb1cf6	-0.024794083
34	0xbd5c964a	-0.053854264
35	0xbd77de3e	-0.06051468
36	0xbb930c3f	-0.004487544
37	0x3bcb2865	0.0061998838
38	0xbcc82fc9	-0.024436848
39	0xbd7127ab	-0.05887572
40	0xbd45e2ab	-0.04831187
41	0xbc16c82d	-0.009202999
42	0xb8bb7492	-8.938568e-05
43	0xbd2b0834	-0.04175587
44	0x3bc17808	0.0059042014
45	0x3b5d6c29	0.0033786392
46	0xbcd4df8c	-0.025985502
47	0xbd479b78	-0.04873225
48	0xbc58d29f	-0.01323381
49	0x3c6340af	0.013870402
50	0xbd263dc4	-0.040586248
51	0xbd5607aa	-0.052253403
52	0xbc9177d1	-0.017757328
53	0xbc7ebf00	-0.015548468
54	0x3c69b8fe	0.014265297
55	0xbcd7512e	-0.026283827
56	0xbcbf598c	-0.023358129
57	0xbd2421b5	-0.040071208
58	0xbd39ab5b	-0.045329433
59	0xbc8c665e	-0.017138656
60	0xbd28a107	-0.041169193
61	0x3c18aba0	0.009318262
62	0xbcd0c8de	-0.025486406
63	0xbd0b1a4a	-0.033960618
64	0xbcdfe5bf	-0.027331231
65	0xbd24fb11	-0.040278498
66	0xbdc0edd9	-0.09420366
67	0xbde7d7d6	-0.11320464
68	0xbdbac564	-0.091196805
69	0xbe0a7061	-0.13519432
70	0xbdb21d8c	-0.08697042
71	0xbd8a2adc	-0.06746456
72	0xbd81f6bc	-0.06345889
73	0xbc8f0530	-0.017458528
74	0xbd15a19f	-0.036531087
75	0x3b98603f	0.0046501453
76	0xbd79d4aa	-0.060993828
77	0xbd1f224c	-0.038851067
78	0xbd1b520e	-0.03792005
79	0xbc2e2f71	-0.010631428
80	0x3c597e35	0.013274719
81	0xbccfea32	-0.025380228
82	0x3ba4a8c6	0.005025002
83	0xbc57df3e	-0.013175784
84	0xbd488175	-0.048951585
85	0x3bd5c71e	0.0065239808
86	0x3c42f22c	0.011898559
87	0x3c678d66	0.014132833
88	0xbcb7f8ea	-0.022457559
89	0xbba36121	-0.004985944
90	0xbc98d7fd	-0.018657679
91	0xbceb4788	-0.028720632
92	0xbd862001	-0.06549073
93	0xbdec3942	-0.115343586
94	0xbd8805f4	-0.066417605
95	0xbdb9fa7a	-0.09080978
96	0xbdcaa517	-0.0989477
97	0xbe254f52	-0.1614354
98	0xbd76e7e0	-0.060279727
99	0xbd6fabe3	-0.058513533
100	0xbd724765	-0.05915012
101	0xbd49ba0d	-0.049249697
102	0xbd5f241c	-0.054477796
103	0xbcb14723	-0.021640366
104	0x3c293fe8	0.010330178
105	0x3cbc2ce7	0.02297063
106	0xbd4e2076	-0.050323926
107	0x3b885d2b	0.004161497
108	0xbce83e39	-0.028349983
109	0x3bbc14bb	0.005739776
110	0xbcec1fac	-0.028823696
111	0xbc6810c4	-0.0141641535
112	0xbc2af58a	-0.010434518
113	0xbd1fdc0b	-0.03902821
114	0xbcf8ca15	-0.030369798
115	0xbb0c734a	-0.0021431022
116	0xbd192691	-0.037390295
117	0xbcb1dc6d	-0.021711553
118	0xbca5b9db	-0.020230224
119	0xbc25ff06	-0.010131603
120	0xbd9f410b	-0.07776078
121	0xbdd7cf05	-0.10537533
122	0xbc6421cb	-0.0139240725
123	0x3d23bef7	0.03997704
124	0x3d65de20	0.056120038
125	0xbd9ac253	-0.07556596
126	0xbc57cad3	-0.013170916
127	0xbc32b8ab	-0.010908286
128	0x3b93cd6e	0.004510573
129	0x3df137fa	0.11778255
130	0x3e482bfd	0.1954803
131	0x3d82f327	0.06394034
132	0x3c81e938	0.015858278
133	0x3a7925f1	0.000950425
134	0xbcdddf1d	-0.027083928
135	0xbd37b003	-0.044845592
136	0x3cb6c98e	0.022312906
137	0x3c470edd	0.01214954
138	0xbc6970e0	-0.014248103
139	0xbca02095	-0.019546786
140	0x3b8f87e9	0.0043802154
141	0x3bf7e2e9	0.0075648916
142	0xbcc30025	-0.02380378
143	0xbce3b93b	-0.027798286
144	0xbbc8dc42	-0.0061297724
145	0x3cf734d7	0.030176563
146	0x3b23b747	0.0024981068
147	0x3dacfd90	0.08446801
148	0x3d1cd406	0.03828814
149	0x3d1a13cd	0.03761654
150	0x3d295be3	0.041347396
151	0x3e20a55a	0.15688077
152	0x3e2f5267	0.17121278
153	0x3d0b8288	0.03406003
154	0xbd8ce2c3	-0.06879189
155	0xbe294dd2	-0.16533592
156	0xbd22ce7e	-0.039747708
157	0x3de431a5	0.111422814
158	0x3df9f31b	0.12204572
159	0x3c1657a3	0.009176168
160	0x3c59fc89	0.013304838
161	0xbd3cfc64	-0.046139136
162	0xbdc6923d	-0.096958615
163	0xbd13f670	-0.036123693
164	0x3d5edba3	0.05440868
165	0x3cb220e2	0.021744195
166	0xbd10709b	-0.03526364
167	0xbb4d3b18	-0.003131574
168	0xbcd89abc	-0.02644097
169	0xbd02bdba	-0.03191922
170	0xbcf90b83	-0.030400997
171	0xbcab6172	-0.020920489
172	0x3b9bf914	0.004759917
173	0x3d285ff3	0.04110713
174	0x3e05326d	0.13007517
175	0x3e018ede	0.12652156
176	0x3e81bddc	0.25340164
177	0x3e6c4893	0.2307456
178	0x3e5ccd85	0.21562774
179	0x3e4ff2f0	0.20307517
180	0x3e1979e4	0.14987904
181	0x3c657cbd	0.014006791
182	0xbc19bfb6	-0.009384086
183	0x3d209218	0.039201826
184	0x3d8fd868	0.07023698
185	0x3e176a76	0.14786705
186	0x3de23d6e	0.11046873
187	0x3d923cb4	0.071404845
188	0x3dec15ec	0.11527619
189	0x3cef9f17	0.029250665
190	0xbb6adf92	-0.0035838825
191	0x3d836c17	0.06417101
192	0x3d5272c7	0.05137899
193	0x3c26d940	0.010183632
194	0xbc65f4b9	-0.014035397
195	0x3c5e53ad	0.013569755
196	0xbc810b59	-0.015752481
197	0xbd11b7fc	-0.03557585
198	0xbc86898d	-0.016423011
199	0x3b350c50	0.0027625747
200	0x3cf4d183	0.02988506
201	0x3dc750b5	0.097321905
202	0x3e38feb7	0.18065916
203	0x3e2b9650	0.16756558
204	0x3e87187b	0.26385865
205	0x3e6c5afe	0.23081586
206	0x3e81f88b	0.25384936
207	0x3e37e55d	0.17958589
208	0x3e0fb4c0	0.14033794
209	0x3b02fd01	0.0019987228
210	0xbdcb6dbb	-0.09933039
211	0x3db6ac56	0.08919589
212	0x3d4ef691	0.050528113
213	0x3db4713b	0.088106595
214	0x3e2df713	0.16988783
215	0x3db384e6	0.08765583
216	0x3d56985b	0.05239139
217	0xbd482b21	-0.048869256
218	0x3ce79e56	0.028273743
219	0x3d839239	0.06424374
220	0x3d3a3d55	0.045468647
221	0x3c21e629	0.009881535
222	0xbd026954	-0.03183873
223	0xbd2b8b83	-0.041881096
224	0xbc8c532c	-0.017129503
225	0x3c4949fe	0.0122857075
226	0xbc360c1b	-0.011111285
227	0x3d11bf97	0.035583105
228	0x3d8737f3	0.06602468
229	0x3e1e6dda	0.15471593
230	0x3e53bec1	0.20678236
231	0x3e46db52	0.19419602
232	0x3dfecc40	0.12441301
233	0x3e2a6202	0.1663895
234	0x3e11f24a	0.14252582
235	0x3e406443	0.18788247
236	0x3dd3d10a	0.103426054
237	0xbbeb58b9	-0.0071822074
238	0x3b27c21d	0.0025597878
239	0x3df68116	0.1203634
240	0x3d8f37f7	0.06993096
241	0x3d2c0330	0.041995227
242	0x3e60b54d	0.21944161
243	0x3dad7b8d	0.08470831
244	0x3db58dc6	0.08864932
245	0x3d4a07d5	0.049323875
246	0x3d8ffd6c	0.07030758
247	0xbbc10835	-0.005890871
248	0x3d5c4133	0.053773116
249	0x3d0d8316	0.03454884
250	0x3cdea9fa	0.02718066
251	0xbd42f7ad	-0.047599483
252	0x3c80cbb9	0.015722143
253	0xbc9d03e7	-0.0191669
254	0xbd3275b0	-0.043569267
255	0x3d622da9	0.055219326

fc2.weight f4 [10, 64]
0	0xbe471bb7	-0.19444166
1	0xbea3ec20	-0.32016087
2	0xbdd091e2	-0.10184075
3	0x3da881e6	0.08227901
4	0x3dfda712	0.12385382
5	0xbd1dc3a9	-0.038516674
6	0x3e079f6a	0.13244405
7	0x3e2aae8a	0.16668144
8	0xbea09b47	-0.31368467
9	0xbdfa184c	-0.122116655
10	0xbd53f826	-0.051750325
11	0xbcce58e9	-0.02518888
12	0xbd6abdd4	-0.05730994
13	0x3d625f95	0.055266935
14	0xbf75b44c	-0.95978236
15	0x3e33f8b3	0.1757534
16	0x3e0dfd00	0.13866043
17	0xbcac75dd	-0.021052295
18	0xbef4f9d9	-0.4784687
19	0x3e459ec1	0.19298841
20	0xbe5cd82b	-0.21566837
21	0x3dc343ec	0.095344394
22	0x3da8dd6a	0.082453564
23	0xbd0338fb	-0.032036763
24	0x3de181b0	0.11011064
25	0xbe0b5c0e	-0.13609335
26	0x3e5b2aed	0.21403094
27	0x3db8bcbb	0.090203725
28	0x3df332d8	0.11874932
29	0x3df64409	0.120246954
30	0x3eb960a2	0.36206537
31	0xbdc3a33d	-0.095526196
32	0xbe7bdd5c	-0.2459616
33	0x3d9dc02e	0.07702671
34	0x3dd6f46c	0.104958385
35	0x3d850138	0.06494373
36	0x3c99edf2	0.018790219
37	0xbe95b950	-0.29242945
38	0xbb82a4a2	-0.003986911
39	0xbe95a206	-0.29225177
40	0x3dced7aa	0.100997284
41	0x3b748011	0.003730778
42	0xbe16abf5	-0.14714034
43	0x3dc140cf	0.094361894
44	0xbe856c12	-0.26059014
45	0x3da1f48c	0.07907972
46	0x3e8bf7a9	0.27337387
47	0x3dde14f2	0.10843839
48	0x3df5cbe2	0.12001778
49	0xbeadd29c	-0.33949745
50	0x3e2f9e50	0.17150235
51	0xbeac5078	-0.33655143
52	0xbe782558	-0.24232996
53	0x3c1562af	0.009117766
54	0x3d0ca908	0.03434089
55	0x3d47128c	0.048601672
56	0xbcfa9e6a	-0.030593116
57	0xbe1a1829	-0.15048279
58	0xbd260940	-0.040536165
59	0x3d133979	0.035943482
60	0xbc30d493	-0.010792869
61	0xbd48b697	-0.049002256
62	0xbeaaa8d8	-0.33331943
63	0x3dd2268b	0.10261258
64	0xbe91b80c	-0.2846073
65	0xbd841b8d	-0.064505674
66	0xbe9569d8	-0.29182315
67	0xbcc2a27d	-0.023759121
68	0xbe43bccb	-0.19114988
69	0xbdf71533	-0.1206459
70	0xbe0711dd	-0.13190408
71	0x3cdca792	0.026935373
72	0x3da7e4c9	0.08197934
73	0x3de97e33	0.11401024
74	0x3c13e989	0.009027847
75	0xbdfcfbce	-0.123527154
76	0x3c5dd3ae	0.013539238
77	0x3d0b99b8	0.034082144
78	0xbe212fe1	-0.1574092
79	0xbe9af233	-0.30262908
80	0xbdc161e1	-0.09442497
81	0xbcbc6448	-0.022997037
82	0x3e76bc75	0.24095328
83	0x3e70d311	0.23518015
84	0x3df86ebb	0.12130495
85	0x3d826b63	0.06368139
86	0xbb12fcf9	-0.0022428615
87	0xbe9db631	-0.30803064
88	0xbdaf515c	-0.0856044
89	0x3d762304	0.060091987
90	0xbe8786f7	-0.26470158
91	0x3de2f9d6	0.11082809
92	0xbce8884b	-0.028385302
93	0x3e974433	0.2954422
94	0x3d32829e	0.043581598
95	0x3d9cdf57	0.07659786
96	0x3d51bef1	0.051207487
97	0xbe93098d	-0.28718224
98	0x3d4f08b9	0.050545428
99	0x3d8c490c	0.0684987
100	0x3dd9d546	0.10636382
101	0x3de63e35	0.11242334
102	0x3d35f546	0.044423364
103	0x3dc2410c	0.09485063
104	0x3ed540b2	0.4165092
105	0xbe1e62b3	-0.15467338
106	0x3e288328	0.16456282
107	0x3c26f4e2	0.010190221
108	0x3ea3dc38	0.3200395
109	0x3c21bb5e	0.009871332
110	0x3d250f1c	0.040297613
111	0x3df30bb1	0.11867464
112	0xbc2f53d9	-0.010701143
113	0x3e18a636	0.14907154
114	0xbe36faef	-0.17869161
115	0xbf12c401	-0.5733033
116	0x3e1803fc	0.1484527
117	0xbed85904	-0.42255414
118	0xbda8996b	-0.08232387
119	0x3c033247	0.0080075925
120	0xbde612c6	-0.112340495
121	0x3d295cf9	0.04134843
122	0x3d3271e5	0.04356565
123	0x3db0918c	0.08621511
124	0xbd5d4078	-0.05401656
125	0x3dcfd1a4	0.10147408
126	0x3d18665f	0.037207004
127	0xbdf08348	-0.1174379
128	0xbd6a1c73	-0.057156038
129	0xbcf66142	-0.030075673
130	0x3e479a35	0.19492419
131	0xbe666cce	-0.22502443
132	0xbd1e3f21	-0.038634423
133	0xbcddf647	-0.027094973
134	0x3e5e4ed8	0.21709764
135	0xbbba55d0	-0.005686499
136	0x3d314053	0.043274235
137	0xbda712f6	-0.081579134
138	0x3d8546fe	0.06507681
139	0x3d93c2ac	0.07214865
140	0x3dbd6e3f	0.092495434
141	0x3dae4116	0.08508508
142	0xbf0af19c	-0.54274917
143	0x3e47a814	0.1949771
144	0x3e7363b9	0.2376851
145	0x3dcb7056	0.09933536
146	0x3d4d4c07	0.050121333
147	0x3a0ebe00	0.00054451823
148	0x3ccd0a83	0.025029426
149	0xbe5f3af5	-0.21799834
150	0xbdcb960d	-0.09940729
151	0x3dc0a267	0.09405976
152	0x3dd88cb4	0.10573712
153	0xbe0d3083	-0.13788037
154	0x3d31f689	0.043448005
155	0x3d5570ee	0.05210965
156	0x3dfea0c3	0.124330066
157	0xbdebfe7e	-0.1152315
158	0x3e53c78c	0.2068159
159	0x3d8791a6	0.06619577
160	0xbe855e12	-0.26048332
161	0xbe1bd9a3	-0.1521974
162	0xbcffcfb8	-0.031226978
163	0x3d8f0bc6	0.069846675
164	0xbcbef27a	-0.023308981
165	0x3eb29b94	0.34884322
166	0xbdc151a7	-0.09439402
167	0x3d906d09	0.07052047
168	0xbd83fcf9	-0.06444735
169	0x3e86ffcf	0.2636704
170	0x3e342327	0.17591535
171	0x3dbce3f1	0.09223164
172	0x3df6cb9f	0.120505564
173	0x3c189008	0.0093116835
174	0x3d98f196	0.07467954
175	0xbdbf8c98	-0.09352988
176	0xbf2eb030	-0.6823759
177	0x3e5a257b	0.2130336
178	0x3e47b7b7	0.19503675
179	0xbe1c44d4	-0.15260631
180	0x3e1a5b38	0.1507386
181	0xbea25c0d	-0.31710854
182	0xbc37f7dd	-0.011228529
183	0x3d99387a	0.07481475
184	0x3c022327	0.007942951
185	0x3db5867c	0.088635415
186	0x3c5a3e8f	0.013320579
187	0xbe18fdb2	-0.14940527
188	0x3de74b81	0.11293698
189	0xbd72afc7	-0.059249666
190	0x3dff15c2	0.12455322
191	0xbd95f40b	-0.07321938
192	0x3e0b473b	0.13601391
193	0x3c8eac1c	0.017416053
194	0xbd21c209	-0.039491687
195	0xbdb17acf	-0.08666002
196	0xbdea3d31	-0.114374526
197	0x3db2eab3	0.087361716
198	0x3c3c16d6	0.011480054
199	0x3d1b3c8e	0.037899546
200	0xbe41ba59	-0.18918742
201	0xbc1a8dda	-0.009433234
202	0x3eaf09c0	0.34187126
203	0xbf192917	-0.59828323
204	0x3d05e396	0.032687746
205	0xbc282259	-0.010262095
206	0x3e7f5c6d	0.24937601
207	0x3c66f112	0.014095562
208	0xbc46bbf1	-0.01212977
209	0x3dc08512	0.09400381
210	0x3dcf36fd	0.1011791
211	0xbdb7945e	-0.08963846
212	0x3e4ec91b	0.20193903
213	0xbe998f4e	-0.29992145
214	0x3d7ce7a3	0.061744343
215	0x3dc09b32	0.09404601
216	0x3dd314d3	0.10306706
217	0x3e0f52d4	0.1399644
218	0x3d3f94b7	0.046772685
219	0x3ad68db4	0.0016369135
220	0x3cc1a9b9	0.0236405
221	0x3db3e75c	0.08784363
222	0x3dcc88ca	0.09987028
223	0x3c6bf9fc	0.014402863
224	0xbdb03781	-0.086043365
225	0x3dbc68da	0.09199686
226	0x3ce8f774	0.028438307
227	0xbdab4393	-0.08362498
228	0x3da5ac69	0.08089525
229	0xbe506b45	-0.2035342
230	0x3d8f7484	0.070046455
231	0x3d8f31e7	0.0699194
232	0x3d6c2542	0.05765272
233	0x3dfd6661	0.12373043
234	0xbe82338c	-0.25429952
235	0xbc35a9ab	-0.011087815
236	0xbed8e49d	-0.42361918
237	0xbdbace54	-0.09121385
238	0xbea77d14	-0.32712615
239	0xbeae127a	-0.33998471
240	0xbe45a267	-0.19300233
241	0x3d048c72	0.0323605
242	0x3d4d22d8	0.050082058
243	0xbe3fc695	-0.18728097
244	0xbc04c664	-0.008103941
245	0xbcb9d8a8	-0.022686318
246	0x3de3b586	0.11118607
247	0x3c815c96	0.015791219
248	0xbe0550d0	-0.13019109
249	0x3e552f82	0.20818904
250	0xbda2379c	-0.07920763
251	0x3e5271e5	0.2055126
252	0xbd6c7842	-0.057731874
253	0xbcc6f58e	-0.024287011
254	0x3e317ab9	0.17331971
255	0xbdf6041a	-0.12012501
